…
ocab_size=tokenize_src.get_vocab_size(),\n...     src_pad_idx=tokenize_src.token_to_id('<pad>'),\n...     tgt_vocab_size=tokenize_tgt.get_vocab_size(),\n...     tgt_pad_idx=tokenize_tgt.token_to_id('<pad>')\n...     ).to(DEVICE)\n>>> model.init_weights()\n>>> model  # #1\n```", "```py\nTranslationTransformer(\n  (encoder): TransformerEncoder(\n    (layers): ModuleList(\n      (0-5): 6 x TransformerEncoderLayer(\n        (self_attn): MultiheadAttention(\n          (out_proj): NonDynamicallyQuantizableLinear(\n            in_features=512, out_features=512, bias=True)\n        )\n        (linear1): Linear(\n          in_features=512, out_features=2048, bias=True)\n        (dropout): Dropout(p=0.1, inplace=False)\n        (linear2): Linear(\n          in_features=2048, out_features=512, bias=True)\n        (norm1): LayerNorm((512,), eps=1e-05, elementwise_affine=True)\n        (norm2): LayerNorm((512,), eps=1e-05, elementwise_affine=True)\n        (dropout1): Dropout(p=0.1, inplace=False)\n        (dropout2): Dropout(p=0.1, inplace=False)\n      )\n    )\n    (norm): LayerNorm((512,), eps=1e-05, elementwise_affine=True)\n  )\n...\n```", "```py\n>>> src = torch.randint(1, 100, (10, 5)).to(DEVICE)  # #1\n>>> tgt = torch.randint(1, 100, (10, 7)).to(DEVICE)\n...\n>>> with torch.no_grad():\n...     output = model(src, tgt)  # #2\n...\n>>> print(output.shape)\ntorch.Size([10, 7, 5893])\n```", "```py\nRuntimeError: the batch number of src and tgt must be equal\n```", "```py\n>
…
_field, trg_field, model, device, max_len)\n...         # strip <eos> token\n...         pred_trg = pred_trg[:-1]\n...         pred_trgs.append(pred_trg)\n...         trgs.append([trg])\n...\n...     return bleu_score(pred_trgs, trgs)\n```", "```py\n>>> bleu_score = calculate_bleu(test_data, SRC, TRG, model, device)\n>>> print(f'BLEU score = {bleu_score*100:.2f}')\nBLEU score = 37.68\n```", "```py\n>>> from transformers import BertModel\n>>> model = BertModel.from_pre-trained('bert-base-uncased')\n>>> print(model)\n```", "```py\nBertModel(\n  (embeddings): BertEmbeddings(\n    (word_embeddings): Embedding(30522, 768, padding_idx=0)\n    (position_embeddings): Embedding(512, 768)\n    (token_type_embeddings): Embedding(2, 768)\n    (LayerNorm): LayerNorm((768,), eps=1e-12, elementwise_affine=True)\n    (dropout): Dropout(p=0.1, inplace=False)\n  )\n  (encoder): BertEncoder(\n    (layer): ModuleList(\n      (0): BertLayer(\n        (attention): BertAttention(\n          (self): BertSelfAttention(\n            (query): Linear(in_features=768, out_features=768, bias=True)\n            (key): Linear(in_features=768, out_features=768, bias=True)\n            (value): Linear(in_features=768, out_features=768, bias=True)\n            (dropout): Dropout(p=0.1, inplace=False)\n          )\n          (output): BertSelfOutput(\n            (dense): Linear(in_features=768, out_features=768, bias=True)\n            (LayerNorm): LayerNorm((768,), eps=1e-12,\n elementwise_affine=True)\n            (dropout): Dropout(p=0.1, inplace=False)\n          )\n        )\n        (intermediate): BertIntermediate(\n          (dense): Linear(in_features=768, out_features=3072, bias=True)\n        )\n        (output): BertOutput(\n          (dense): Linear(in_features=3072, out_features=768, bias=True)\n          (LayerNorm): LayerNorm((768,), eps=1e-12, elementwise_affine=True)\n          (dropout): Dropout(p=0.1, inplace=False)\n        )\n\n      ... # #1\n\n      (11): BertLayer(\n        (attention): BertAttention(...)\n        (intermediate): BertIntermediate(\n          (dense): Linear(in_features=768, out_features=3072, bias=True)\n        )\n        (output): BertOutput(\n          (dense): Linear(in_features=3072, out_features=768, bias=True)\n          (LayerNorm): LayerNorm((768,), eps=1e-12, elementwise_affine=True)\n          (dropout): Dropout(p=0.1, inplace=False)\n  ) ) ) )\n  (pooler): BertPooler(\n    (dense): Linear(in_features=768, out_features=768, bias=True)\n    (activation): Tanh() ) )\n```", "```py\n>>> import pandas as pd\n>>> df = pd.read_csv('data/train.csv')  # #1\n>>> df.head()\n                   comment_text toxic severe obscene threat insult hate\nExplanation\\nWhy the edits made     0      0       0      0      0    0\nD'aww! He matches this backgrou 0 0 0 0 0 0\nHey man, I'm really not trying 
…
