["```py\nfairseq-train \\\n    data/mt-bin \\\n    --arch lstm \\\n    --share-decoder-input-output-embed \\\n    --optimizer adam \\\n    --lr 1.0e-3 \\\n    --max-tokens 4096 \\\n    --save-dir data/mt-ckpt\n```", "```py\n...\nLSTMModel(\n  (encoder): LSTMEncoder(\n    (embed_tokens): Embedding(16832, 512, padding_idx=1)\n    (lstm): LSTM(512, 512)\n  )\n  (decoder): LSTMDecoder(\n    (embed_tokens): Embedding(11416, 512, padding_idx=1)\n    (layers): ModuleList(\n      (0): LSTMCell(1024, 512)\n    )\n (attention): AttentionLayer(\n (input_proj): Linear(in_features=512, out_features=512, bias=False)\n (output_proj): Linear(in_features=1024, out_features=512, bias=False)\n )\n  )\n)\n...\n```", "```py\n$ fairseq-train \\\n      data/mt-bin \\\n      --arch lstm \\\n      --decoder-attention 0 \\\n      --share-decoder-input-output-embed \\\n      --optimizer adam \\\n      --lr 1.0e-3 \\\n      --max-tokens 4096 \\\n      --save-dir data/mt-ckpt-no-attn\n```", "```py\nLSTMModel(\n  (encoder): LSTMEncoder(\n    (embed_tokens): Embedding(16832, 512, padding_idx=1)\n    (lstm): LSTM(512, 512)\n  )\n  (decoder): LSTMDecoder(\n    (embed_tokens): Embedding(11416, 512, padding_idx=1)\n    (layers): ModuleList(\n      (0): LSTMCell(1024, 512)\n    )\n  )\n)\n```", "```py\n$ fairseq-interactive \\\n    data/mt-bin \\\n    --path data/mt-ckpt/checkpoint_best.pt \\\n    --beam 5 \\\n    --source-lang es \\\n    --target-lang en\n```", "```py\nfairseq-train \\\n  data/mt-bin \\\n  --arch transformer \\\n  --share-decoder-input-output-embed \\\n  --optimizer adam --adam-betas '(0.9, 0.98)' --clip-norm 0.0 \\\n  --lr 5e-4 --lr-scheduler inverse_sqrt --warmup-updates 4000 \\\n  --dropout 0.3 --weight-decay 0.0 \\\n  --criterion label_smoothed_cross_entropy --label-smoothing 0.1 \\\n  --max-tokens 4096 \\\n  --save-dir data/mt-ckpt-transformer\n```", "```py\nTransformerModel(\n  (encoder): TransformerEncoder(\n    (embed_tokens): Embedding(16832, 512, padding_idx=1)\n    (embed_positions): SinusoidalPositionalEmbedding()\n    (layers): ModuleList(\n      (0): TransformerEncoderLayer(\n        (self_attn): MultiheadAttention(                                   ❶\n          (out_proj): Linear(in_features=512, out_features=512, bias=True)\n        )\n        (self_attn_layer_norm): LayerNorm((512,), eps=1e-05, elementwise_\n         affine=True)\n        (fc1): Linear(in_features=512, out_features=2048, bias=True)       ❷\n        (fc2): Linear(in_features=2048, out_features=512, bias=True)\n        (final_layer_norm): LayerNorm((512,), eps=1e-05, elementwise_affine=True)\n      )\n      ...\n      (5): TransformerEncoderLayer(\n        (self_attn): MultiheadAttention(\n          (out_proj): Linear(in_features=512, out_features=512, bias=True)\n        )\n        (self_attn_layer_norm): LayerNorm((512,), eps=1e-05, elementwise_affine=True)\n        (fc1): Linear(in_features=512, out_features=2048, bias=True)\n        (fc2): Linear(in_features=2048, out_features=512, bias=True)\n        (final_layer_norm): LayerNorm((512,), eps=1e-05, elementwise_affine=True)\n      )\n    )\n  )\n  (decoder): TransformerDecoder(\n    (embed_tokens): Embedding(11416, 512, padding_idx=1)\n    (embed_positions): SinusoidalPositionalEmbedding()\n    (layers): ModuleList(\n      (0): TransformerDecoderLayer(\n        (self_attn): MultiheadAttention(                                   ❸\n          (out_proj): Linear(in_features=512, out_features=512, bias=True)\n        )\n        (self_attn_layer_norm): LayerNorm((512,), eps=1e-05, elementwise_affine=True)\n        (encoder_attn): MultiheadAttention(                                ❹\n          (out_proj): Linear(in_features=512, out_features=512, bias=True)\n        )\n        (encoder_attn_layer_norm): LayerNorm((512,), eps=1e-05, elementwise_\n         affine=True)\n        (fc1): Linear(in_features=512, out_features=2048, bias=True)       ❺\n        (fc2): Linear(in_features=2048, out_features=512, bias=True)\n        (final_layer_norm): LayerNorm((512,), eps=1e-05, elementwise_affine=True)\n      )\n      ...\n      (5): TransformerDecoderLayer(\n        (self_attn): MultiheadAttention(\n          (out_proj): Linear(in_features=512, out_features=512, bias=True)\n        )\n        (self_attn_layer_norm): LayerNorm((512,), eps=1e-05, elementwise_affine=True)\n        (encoder_attn): MultiheadAttention(\n          (out_proj): Linear(in_features=512, out_features=512, bias=True)\n        )\n        (encoder_attn_layer_norm): LayerNorm((512,), eps=1e-05, elementwise_\n         affine=True)\n        (fc1): Linear(in_features=512, out_features=2048, bias=True)\n        (fc2): Linear(in_features=2048, out_features=512, bias=True)\n        (final_layer_norm): LayerNorm((512,), eps=1e-05, elementwise_affine=True)\n      )\n    )\n  )\n)\n```", "```py\n¡ Buenos días !\nS-0     ¡ Buenos días !\nH-0     -0.0753164291381836     Good morning !\nP-0     -0.0532 -0.0063 -0.1782 -0.0635\n¡ Hola !\nS-1     ¡ Hola !\nH-1     -0.17134985327720642    Hi !\nP-1     -0.2101 -0.2405 -0.0635\n¿ Dónde está el baño ?\nS-2     ¿ Dónde está el baño ?\nH-2     -0.2670585513114929    
…
