…
nerate_model(max_len, max_cells, category_count)   ❶\nClassifier.load_weights(checkpoint, None, model, checkpoint_dir)        ❷\nmodel.compile(loss='binary_crossentropy',optimizer='adam', metrics=['accuracy'])                                              ❸\n```", "```py\nmodel.summary() \n```", "```py\n______________________________________________________________________________________\nLayer (type)                    Output Shape         Param #   Connected to           \n======================================================================================\ninput_1 (InputLayer)            (None, 500, 20)      0                                \n______________________________________________________________________________________\ntime_distributed_1 (TimeDistrib (None, 500, 512)     3202416   input_1[0][0]          \n______________________________________________________________________________________\nlstm_3 (LSTM)                   (None, 128)          328192    time_distributed_1[0][0]\n______________________________________________________________________________________\nlstm_4 (LSTM)                   (None, 128)          328192    time_distributed_1[0][0]\n______________________________________________________________________________________\nconcatenate_2 (Concatenate)     (None, 256)          0         lstm_3[0][0]           \n                                                               lstm_4[0][0]           \n______________________________________________________________________________________\ndropout_5 (Dropout)             (None, 256)          0         concatenate_2[0][0]    \n______________________________________________________________________________________\ndense_1 (Dense)                 (None, 128)          32896     dropout_5[0][0]        \n______________________________________________________________________________________\ndropout_6 (Dropout)             (None, 128)          0         dense_1[0][0]          \n______________________________________________________________________________________\ndense_2 (Dense)                 (None, 9)            1161      dropout_6[0][0]        \n```", "```py\np_threshold = 0.5                                       ❶\ny = model.predict(X_baseball)                           ❷\nresult = encoder.reverse_label_encode(y,p_threshold)    ❸\nprint(\"Recall that the column headers were:\")           ❹\nprint(list(raw_baseball_data))\nprint(\"The predicted classes and probabilities are respectively:\")\nprint(result)\n
…
